…
    early_stop: true
bab:
  max_domains: 200000
  decision_thresh: 99999999
  timeout: 180
  get_upper_bound: false
  dfs_percent: 0.0
  branching:
    method: kfsb
    candidates: 3
    reduceop: max
attack:
  pgd_order: before
  enable_mip_attack: false
  pgd_steps: 100
  pgd_restarts: 30
  pgd_early_stop: true
  pgd_lr_decay: 0.99
  pgd_alpha: auto
debug:
  lp_test: null

----------------------------------------------------------------
        Layer (type)               Output Shape         Param #
================================================================
           Flatten-1                    [-1, 4]               0
            Linear-2                    [-1, 3]              15
              ReLU-3                    [-1, 3]               0
            Linear-4                    [-1, 5]              20
              ReLU-5                    [-1, 5]               0
            Linear-6                    [-1, 3]              18
================================================================
Total params: 53
Trainable params: 53
Non-trainable params: 0
----------------------------------------------------------------
Input size (MB): 0.00
Forward/backward pass size (MB): 0.00
Params size (MB): 0.00
Estimated Total Size (MB): 0.00
----------------------------------------------------------------
X tensor([[ 0.4131,  0.0548, -0.4154, -0.4171]], device='cuda:0')
…
